…
[{amdn_Gaussian-tied-unco-new.py:132} INFO - loaded split train...
[{amdn_Gaussian-tied-unco-new.py:132} INFO - loaded split dev...
[{amdn_Gaussian-tied-unco-new.py:132} INFO - loaded split test...
[{amdn_Gaussian-tied-unco-new.py:147} INFO - Mean and std in train = -5.332004547119141 and 2.4432380199432373
[{amdn_Gaussian-tied-unco-new.py:168} INFO - Mean and std out train = -5.369558334350586 and 2.449768543243408
[{amdn_Gaussian-tied-unco-new.py:525} INFO - loaded the dataset and formed torch dataloaders.
[{amdn_Gaussian-tied-unco-new.py:193} INFO - Model(
  (rnn): AttentiveLayer(
    (mark_embedding): Embedding(119298, 64)
    (tblocks): Sequential(
      (0): TransformerBlock(
        (attention): SelfAttentionWide(
          (tokeys): Linear(in_features=192, out_features=192, bias=False)
          (toqueries): Linear(in_features=192, out_features=192, bias=False)
          (tovalues): Linear(in_features=192, out_features=192, bias=False)
          (unifyheads): Linear(in_features=192, out_features=192, bias=True)
        )
        (norm1): LayerNorm((192,), eps=1e-05, elementwise_affine=True)
        (norm2): LayerNorm((192,), eps=1e-05, elementwise_affine=True)
        (ff): Sequential(
          (0): Linear(in_features=192, out_features=384, bias=True)
          (1): ReLU()
          (2): Linear(in_features=384, out_features=192, bias=True)
        )
        (do): Dropout(p=0.5, inplace=False)
      )
    )
  )
  (mark_layer): Sequential(
    (0): Linear(in_features=192, out_features=192, bias=True)
    (1): ReLU()
    (2): Linear(in_features=192, out_features=119298, bias=True)
  )
  (decoder): TransformedDistribution(
    (transforms): ModuleList(
      (0): FixedAffine()
      (1): Exp()
    )
    (base_dist): NormalMixtureDistribution(
      (hypernet): Hypernet(
        (activation): Tanh()
        (linear_rnn): Linear(in_features=192, out_features=24, bias=False)
        (linear_layers): ModuleList()
      )
    )
  )
)
[{amdn_Gaussian-tied-unco-new.py:527} INFO - model created from config hyperparameters.
[{amdn_Gaussian-tied-unco-new.py:522} INFO - Logging any runs of this program - appended to same file.
[{amdn_Gaussian-tied-unco-new.py:523} INFO - Arguments = Namespace(add=0, batch_size=128, data_dir='../..
…
